models/model_auth_centric.pth (torch, 153270 bytes, 6 tensors)

inp.weight f4 [256, 16]
000000 2d f7 31 3e c5 66 23 3e ec fb 56 3e 39 b4 53 be
       0.17379446 0.15957172 0.20994538 -0.20674218
000010 88 31 0c be a4 7b 1b be 13 3d 4d be c2 46 cf 3d
       -0.1369077 -0.15183884 -0.20042829 0.10120918
000020 de 69 c9 bd c8 46 14 3e e9 34 10 be f2 db 83 3d
       -0.09834646 0.14480126 -0.14082684 0.064384356
000030 b5 47 12 be 52 0c 85 3e 55 ea a5 3e 47 5a 6b bd
       -0.14285167 0.25985962 0.32405344 -0.057459142
000040 2b 99 ff bc 6b 64 7c 3e 14 05 b8 3d a6 24 3c 3d
       -0.031200966 0.24647681 0.089853436 0.04593339
000050 e5 82 08 3e 7f c4 16 3e d3 ac 2a 3e 69 d8 dd 3c
       0.13331182 0.14723395 0.1666749 0.027080731
000060 6e b2 83 bc 74 89 45 3c 22 76 40 be e2 d7 d4 3d
       -0.016076293 0.012056697 -0.18795064 0.10392739
000070 a8 7b a4 be 6a dd 73 be 58 29 c5 bc 4c 95 1b be
       -0.32125592 -0.23814932 -0.024067566 -0.15193671
000080 1f d6 2f 3e 73 b4 5e 3e 70 b8 1e 3e 53 37 d1 bd
       0.17171524 0.21748523 0.15500045 -0.102156304
000090 c2 db 58 bc 45 d6 f4 bd ff ad e1 bd 9c da 12 3d
       -0.013235988 -0.11954931 -0.11019515 0.035853013
0000a0 1d f1 4f be ad 96 9c bd 36 86 27 bd 7a f9 dd 3d
       -0.20306821 -0.076459266 -0.040899478 0.108385995
0000b0 0a de 73 3e f0 7e e7 bc 5d 49 c8 3d a5 1b f0 3e
       0.2381517 -0.02825877 0.09779618 0.4689609
0000c0 3e 16 c0 bd f9 32 64 3d 8d 80 ba 3d 92 43 23 be
       -0.09379242 0.055712674 0.0910655 -0.15943745
0000d0 48 0d b7 be 16 5e 49 3d e3 ba fa bd 44 9b a6 3c
       -0.3575232 0.049161993 -0.12242677 0.020337708
0000e0 8b fd 85 3e a9 c4 63 3d 9d bb 18 3d a4 39 d8 3d
       0.2617 0.05560747 0.037288297 0.10557869
0000f0 7e 12 3e be 41 15 8f 3d 02 23 98 bb c4 06 88 be
       -0.18561742 0.06986476 -0.004642845 -0.26567662
000100 cb 0e 32 be 55 da ec 3d 3e db 9c 3c 33 9f 3e 3e
       -0.17388456 0.11565081 0.019147512 0.18615417
000110 df 57 8a be df ba f3 bd 45 65 83 be d7 db f1 3a
       -0.27020165 -0.11900877 -0.256632 0.0018452358
000120 90 f7 8a 3e 66 3f 38 bd 8b 23 e7 bd 5c 4b 2e be
       0.27142 -0.044982336 -0.11286076 -0.17020935
000130 4c b6 73 3e 55 f6 98 bd c8 62 f3 3d f9 23 e8 bd
       0.2380001 -0.07468859 0.118840754 -0.11334986
000140 58 47 52 3d b6 e7 58 3d d5 67 ca bd 83 d6 81 be
       0.05133757 0.05295535 -0.09883086 -0.25358972
000150 c8 fd 2e 3e 13 90 4e 3e 74 74 36 be 21 96 96 3e
       0.17088997 0.20172147 -0.17817861 0.29411414
000160 d6 fc c1 3d 39 b9 c8 bc d5 a5 a8 3b 9b 9e 5a 3d
       0.09472053 -0.024502384 0.005146722 0.053373914
000170 58 b5 01 3b ad fa 82 be 4e 01 bb bd 24 53 51 be
       0.0019791927 -0.25581875 -0.09131108 -0.20441872
000180 19 eb a8 bd 00 b4 9d bd 3c f0 1f bc 4e c1 4b 3c
       -0.08247966 -0.07700348 -0.009761866 0.012436224
000190 b6 1a 8d be 4d e9 9d 3d 57 56 8d 3c 8d 0c 83 bd
       -0.2755944 0.07710514 0.017253084 -0.06398878
0001a0 1a 84 64 be 3f 06 a1 3d 74 8d 8c bd 48 32 29 3e
       -0.22316018 0.078625195 -0.068629175 0.16523087
0001b0 61 80 10 3e b9 a1 8a 3d 18 c9 cb bd fb 17 41 3e
       0.14111473 0.067691274 -0.09950465 0.18856804
0001c0 6a 6b bc 3e fe fb a3 bd 36 bb a6 3d 47 c4 72 be
       0.368007 -0.08007048 0.081411764 -0.23707686
0001d0 bf 2a 75 3e 0e ba 1e 3e 39 c2 3f 3e 86 d8 96 bd
       0.23942088 0.15500662 0.18726434 -0.07365517
0001e0 27 14 5f 3e 38 3d 84 bd fe 72 3c be 46 25 2d be
       0.21785031 -0.06456989 -0.18403241 -0.1690875
0001f0 dd cd b6 3e 40 f2 c2 bc 6a ff a9 bd 7c 18 5e 3e
       0.35703936 -0.023797154 -0.083006695 0.21689028
000200 63 82 2c be 88 25 15 3e 8f 1a e1 3d cc e1 dc 3d
       -0.16846614 0.14565098 0.10991394 0.10785255
000210 0a a3 7c be 9d 7d 7f 3e 37 b5 d2 3d e8 1f e9 bd
       -0.2467157 0.24950261 0.1028847 -0.11383039
000220 26 4d 9c 3e 72 4f e7 3c ca 4e a1 3d 62 a6 e7 3d
       0.3052761 0.028236125 0.07876356 0.11311032
000230 2d 46 56 bd 9f a5 85 be 97 0f 22 bd 29 70 51 be
       -0.05231302 -0.2610292 -0.03956565 -0.20452942
000240 e2 51 5c be 82 4e 92 bd d7 94 62 bf b2 c3 d0 bd
       -0.21515611 -0.071438804 -0.8850836 -0.10193576
000250 45 48 b4 3d f7 da a7 3e c8 b6 ce bd b1 b1 93 bc
       0.08802847 0.32784244 -0.100934565 -0.018029066
000260 63 52 d7 3d b7 36 14 3d 2a ee 91 bd 54 fc 4f 3d
       0.10513761 0.036184993 -0.07125504 0.05077775
000270 0d 51 8f bd 02 f0 e1 3d f0 3d 44 bc 88 32 8c 3c
       -0.06997881 0.11032106 -0.011977658 0.017113939
000280 6e 03 8c 3e 35 68 bc 3c 1b cc 8a bd 29 fe 6e be
       0.27346367 0.022998909 -0.06777211 -0.23339142
000290 93 66 69 3d 03 fb 82 3e b0 78 42 be 08 b1 09 be
       0.056982588 0.25582132 -0.18991351 -0.13446438
0002a0 c7 c0 59 be d5 bc 33 3e 97 11 c9 bd 24 3c 19 be
       -0.21264945 0.17552502 -0.09817808 -0.14964348
0002b0 dd 1d 99 3e 9e 95 0f 3e 72 b6 63 be bd 1e 98 3e
       0.29905596 0.14021918 -0.22237566 0.2971095
0002c0 2d 10 75 3e e8 5f 4d bd 05 1b 2c 3e d1 4f 28 be
       0.23931952 -0.05014029 0.16807182 -0.16436698
0002d0 ee 2e 7f 3e 3c bc 84 3e 87 25 b4 3d 2c ed 83 3d
       0.24920246 0.2592486 0.0879622 0.06441721
0002e0 79 33 93 3e 68 2c 17 be c5 ad e5 3d 4a 68 4a 3e
       0.28750208 -0.14763033 0.112147845 0.19766346
0002f0 ee 9f 72 3e 37 11 b5 bd 32 ce 0c be c4 88 0e 3e
       0.23693821 -0.08841174 -0.13750532 0.1391936
000300 d1 03 54 bd 9d c5 12 be 5d d2 f5 3d 0d 7a 29 be
       -0.051761452 -0.14333196 0.12003014 -0.16550465
000310 fd 41 2a 3e 5c 9e 13 be f3 b7 8e bd a7 c7 57 3e
       0.16626735 -0.14415878 -0.06968679 0.21072255
000320 0e 5f 0f be 72 12 31 bc 36 d5 7b 3e c7 55 35 be
       -0.14001104 -0.01080762 0.24593052 -0.17708503
000330 76 e6 05 be c8 6f 42 be f8 50 32 3e b9 d3 aa bd
       -0.13076195 -0.18987954 0.174137 -0.08341164
000340 54 5d b2 be cd 75 4f bd f3 5b fb bd 5f 49 ae 3c
       -0.3483683 -0.050649453 -0.12273397 0.02127522
000350 a9 4f 4e be 2a 75 97 be 29 69 03 3d 1f 93 51 be
       -0.20147575 -0.29581577 0.03208271 -0.20466278
000360 15 3b 89 3e 6f ad f8 bc 81 10 d0 3d da f5 87 bd
       0.2680289 -0.030356137 0.10159398 -0.06638689
000370 2d 86 80 bd 0f 33 19 3e c0 b8 81 be 6c 93 22 be
       -0.06275592 0.14960884 -0.25336266 -0.1587655
000380 8d a0 88 3d 9d 2a a1 be 11 47 cb 3d 23 35 6c 3e
       0.06671248 -0.31477824 0.09925664 0.23067145
000390 5c eb 5f be c2 32 9d bd 2a 19 74 be 53 c2 56 3e
       -0.21867126 -0.07675697 -0.23837724 0.20972566
0003a0 7f 5e 49 3e 80 bd 3b be ca c9 31 3e 65 e2 6b bd
       0.19664954 -0.18334007 0.17362133 -0.057588954
0003b0 40 2f 68 be 90 0f c4 bc 3e 25 91 bd c4 b6 89 be
       -0.22674274 -0.023933202 -0.070871815 -0.26897252
0003c0 e2 0b 49 3d e8 9e 23 3d 67 18 41 3e 93 e5 48 be
       0.049083598 0.039946467 0.18856965 -0.19618826
0003d0 9f da 32 3e f0 14 a9 3e 5d 60 ee 3d 02 3a 61 be
       0.1746621 0.33023787 0.116394736 -0.21994784
0003e0 c6 83 7e 3e ab 5a 3a 3d 74 e3 30 be 6c 89 6d be
       0.24854955 0.045496624 -0.17274266 -0.23196954
0003f0 ec 8d 26 3e 5c 7d 76 be 51 b1 97 3d 3d 78 82 3e
       0.16265076 -0.24071258 0.07406867 0.2548236

inp.bias f4 [256]
000000 df 55 8c bd 68 10 13 3e 5c fa 30 be 32 5b fd 3d
       -0.06852316 0.14361727 -0.17283005 0.1237091
000010 33 cd a6 3d c8 4d 89 3d 46 d6 d4 3d bb 92 6b 3d
       0.081446074 0.06704289 0.10392432 0.05751298
000020 1c b2 30 be 12 9c 03 3e 4f da 55 bd 38 87 00 be
       -0.17255443 0.12852505 -0.05221015 -0.12551582
000030 75 14 a5 3d db d3 94 3b f8 42 98 be e2 f7 1f be
       0.080605425 0.0045418567 -0.29738593 -0.15621904
000040 fc 29 18 bc 71 b1 23 bd 28 8c 87 be 99 49 1c 3e
       -0.009287354 -0.039964143 -0.26474118 0.1526245
000050 9f 21 47 3e e6 05 9f bd 1b ef 3a be fc 5f 36 3e
       0.19446419 -0.07764797 -0.18255274 0.17810053
000060 74 64 dd bd da cc 50 be 71 8b d4 3c 2f 2a 37 be
       -0.108101755 -0.20390645 0.025945397 -0.17887186
000070 b5 3a df bb 14 a9 13 3e 11 8f 51 3e 42 25 86 be
       -0.0068124183 0.14419967 0.20464732 -0.262003
000080 15 eb 49 3e ef 26 e0 3b dc dd 6f be bb a8 ff bd
       0.19718583 0.0068405787 -0.23424476 -0.12483355
000090 1a 06 fb bd 60 69 09 be 15 ae 40 bd 1c df 7b be
       -0.12257023 -0.13419104 -0.047041018 -0.24596828
0000a0 93 38 46 3e 5d a2 11 be f4 26 81 be 75 c1 84 bd
       0.19357519 -0.14222093 -0.2522503 -0.064822115
0000b0 4f 83 31 be 1e 1d 3c be bf 9e e0 bd 64 41 74 3d
       -0.17335247 -0.18370482 -0.109677784 0.059632674
0000c0 e2 d8 93 3d 27 90 db bd 58 ce 6e 3d f0 e2 99 bc
       0.072191015 -0.10720854 0.058302253 -0.01878497
0000d0 ca c9 52 be 16 13 ff 3d 7d c3 c1 bd af c0 1e 3d
       -0.20584789 0.12454812 -0.094611146 0.038757976
0000e0 ae 84 35 be 1f fc 3d 3d 72 0a b3 3d 34 39 82 bd
       -0.17726395 0.04638302 0.08742227 -0.06358567
0000f0 0a 74 92 be 8e cb fc bd cf 38 32 bd c6 2b 6f be
       -0.28604156 -0.123435125 -0.04351121 -0.23356542
000100 99 ff 3f be 0a 57 f2 3d d4 36 e7 3d df 4a 15 3e
       -0.18749847 0.11833008 0.112897545 0.14579342
000110 d2 cf 78 bd a8 0d 1c be bf fb aa bd ac 15 8e bd
       -0.060745068 -0.15239584 -0.08348798 -0.06937727
000120 b4 6b e2 3c 3f 55 19 3d 31 45 a1 be d9 1a 26 3e
       0.027639247 0.037434813 -0.314981 0.16221179
000130 6a 07 26 3c 38 d8 60 3d d4 10 5f bd f8 07 51 be
       0.010133604 0.054893702 -0.054459408 -0.20413196
000140 79 79 46 bd 52 3e 0c 3d f8 f8 bc 3d 95 4d 68 3c
       -0.04845569 0.03423912 0.092271745 0.014178653
000150 8c ec 21 bd b4 2b 9e 3d ee ae ab 3d 64 de 9a be
       -0.03953223 0.077231795 0.083829746 -0.30247796
000160 e3 92 3c be a2 51 97 bd df 9f d7 3d 5d 4d 38 be
       -0.18415408 -0.07388617 0.1052854 -0.17998262
000170 fb 00 87 bc e8 e1 c2 bd 8a d0 30 3e 09 1c 94 be
       -0.01647996 -0.095157444 0.17267051 -0.2892764
000180 2e 17 30 be 08 aa 55 be d8 4c 81 be e7 48 9c be
       -0.17196342 -0.20865643 -0.2525394 -0.3052437
000190 71 65 4d 3e fc 17 2a be 98 38 0c 3e b1 b7 13 bd
       0.20058228 -0.16610712 0.13693464 -0.036063854
0001a0 be 48 d2 bc ae 91 55 be b3 95 9e bb 3e d5 92 bc
       -0.025669452 -0.20856354 -0.004839623 -0.017923947
0001b0 10 ea 41 bc c6 8a 04 3e f1 66 53 3d 34 c7 dd 3d
       -0.01183559 0.12943563 0.051611844 0.108290106
0001c0 de cd ac bd 02 d6 20 3e b8 5d cf 3d 4b 8a 9e be
       -0.084377035 0.15706638 0.10125297 -0.30964884
0001d0 6c 65 df bd 3a 8e 03 be 0e 71 96 be c0 23 19 be
       -0.109080166 -0.12847224 -0.2938313 -0.14955044
0001e0 10 09 d1 3c 37 b2 21 3d 58 73 fe 3d 5b 81 0e be
       0.025517017 0.0394766 0.12424344 -0.13916533
0001f0 78 7d 8a 3e 38 4b b5 be a2 8a da 3c 64 f0 0c 3e
       0.2704885 -0.3540895 0.026677433 0.13763577
000200 7b e3 09 be 88 cd 4e 3e 1f af c8 be 42 9a f0 3d
       -0.13465683 0.20195591 -0.39196107 0.11748172
000210 8c 51 22 3e 6e 83 65 be ff 2f d8 bc ba ac 05 3e
       0.1585142 -0.22413418 -0.026390074 0.13054171
000220 22 ee 14 3e 63 72 7a bd d2 d7 32 3e 9b 00 c8 3d
       0.14543965 -0.061144244 0.17465141 0.097657405
000230 ca d0 b5 3d 0d b4 94 3d 05 b1 66 be 19 9a 8b bb
       0.08877714 0.072609045 -0.22528465 -0.004260313
000240 fd 55 24 3c dc ff b3 bd 2e 1f 16 be 7a d7 84 be
       0.010030267 -0.08789036 -0.14660332 -0.25945646
000250 48 43 08 3d f2 c6 cf bd c3 1b d5 bd 67 1d 2a be
       0.03326729 -0.10145368 -0.10405686 -0.16612779
000260 ae f8 45 3e 88 cf 36 be 90 83 5a be 8b 64 c5 bd
       0.19333145 -0.17852604 -0.2133925 -0.09638318
000270 44 20 96 3d 57 10 0e be 86 b9 4a 3e 2d 29 06 3e
       0.07330373 -0.1387342 0.19797334 0.13101645
000280 cb 9d 68 be b6 a9 04 bc 9c bf 39 be 3e cf 32 be
       -0.22716443 -0.008097103 -0.181395 -0.17461869
000290 d6 02 3f 3e 6e 65 e9 bd 1c a6 db 3c 37 5a 99 bd
       0.18653426 -0.11396299 0.026812606 -0.0748791
0002a0 23 31 9b 3d bb 33 ca bd 1b 65 3d 3e 00 de 13 3e
       0.075777315 -0.09873148 0.184956 0.14440155
0002b0 c4 c9 85 3e 1d d3 30 bc 6a e6 cd bc f7 0e fe 3d
       0.26130497 -0.010792521 -0.025134284 0.12405198
0002c0 fe 0e c2 bb 34 d3 1b be 7c d9 f6 3d a7 35 eb 3d
       -0.0059221974 -0.15217286 0.120532006 0.11484843
0002d0 3c 4d 1c 3e 45 46 13 be 33 68 27 be 15 4b a1 3d
       0.15263838 -0.14382274 -0.16348343 0.07875649
0002e0 9e cc 5b 3d 5f 8c 7f be 70 b8 13 3e 04 f6 39 3e
       0.053661935 -0.24955891 0.14425826 0.18160254
0002f0 30 98 d2 3d 32 b8 4a bb 65 32 ee bc 24 9b 1f 3e
       0.10282934 -0.0030932543 -0.029076764 0.15586525
000300 c5 55 fd 3d ef ef 01 be fb ab e1 bd 32 27 04 3e
       0.12369875 -0.12689184 -0.11019131 0.12905577
000310 cd e3 09 3d 05 c1 af be 0c a5 8f 3c 01 12 7c be
       0.033664513 -0.3432695 0.017534755 -0.24616243
000320 45 28 51 3e 6e 2b 6a bc f8 d0 17 3e 8e f2 fb 3b
       0.20425518 -0.014292581 0.14825809 0.007688827
000330 4e 1b 91 be 29 ea a6 3d 12 f5 be bc 0c 61 0a 3e
       -0.28341144 0.08150131 -0.023310218 0.13513583
000340 a0 4e 24 3e db bc 52 be 50 da 9e bd 6c 20 30 3e
       0.16045618 -0.20579855 -0.077564836 0.17199868
000350 6d 76 40 bd d8 c7 5b be 71 42 a2 bc 2f da 0c 3e
       -0.04698794 -0.21462953 -0.019807072 0.13755105
000360 33 2f 3c be c4 3d f7 bd 70 f7 20 be 37 be 20 bd
       -0.1837738 -0.12072328 -0.1571939 -0.039243903
000370 57 b8 b0 3c cd be bd bd db dd 50 be fd 8b f6 3b
       0.021572275 -0.09264908 -0.20397131 0.007524012
000380 7e 31 e6 3d 14 54 3d bd c1 8d 5e be fa 31 50 3d
       0.11239909 -0.04622276 -0.21733762 0.05082891
000390 fd 50 4c 3e 6c 97 74 be d3 07 26 be da 54 38 bd
       0.1995277 -0.23885888 -0.16213922 -0.045002796
0003a0 e0 63 e3 3d 0a e2 a5 bb e2 90 08 be 0d a9 67 3d
       0.11103034 -0.0050623463 -0.13336518 0.056557704
0003b0 69 52 5d 3e fb 97 79 3d 85 05 a3 3d f0 aa 9e 3d
       0.21613468 0.060935955 0.07960037 0.077474475
0003c0 81 3a 59 3d f9 69 18 be d6 96 65 bd f0 fa 6e 3c
       0.05303431 -0.14884175 -0.05605205 0.014586195
0003d0 a1 ed b1 3d cc 9c ed 3c 5f 0e 14 be 70 58 17 bb
       0.08687902 0.02900543 -0.14458607 -0.0023093484
0003e0 85 bc 3e bd 41 01 1e 3d 94 46 26 3e ea 0e 46 bd
       -0.046566505 0.038575415 0.16237861 -0.048354067
0003f0 85 19 51 3e 0b 18 ab 3d 6d 1e 1f 3e 14 89 88 3d
       0.20419891 0.08354195 0.1553895 0.066667706

hidden.weight f4 [128, 256]
000000 db c6 53 3d 4a a1 23 bd 43 99 5b bd 4f eb 6c 3c
       0.051703315 -0.03994874 -0.05361296 0.014460399
000010 c9 9c 4f bc 84 16 7b bc f9 18 99 3c c6 32 41 bc
       -0.012671658 -0.015325192 0.018688666 -0.0117918905
000020 e3 04 35 bd 53 65 3f bd 85 46 a3 3c 8e f2 a9 3c
       -0.044194113 -0.04672749 0.019931087 0.020745542
000030 e8 98 3f bd ab cf 1e bd 49 db f7 3c a9 b8 8e bd
       -0.046776682 -0.038772266 0.03025593 -0.06968815
000040 1a 99 01 3d f5 2e 0d bd 75 7f bf bb 2a a3 f7 3c
       0.03164015 -0.03446861 -0.0058440515 0.03022917
000050 fb e0 ad 3b 8b 2d 3f bc 78 ff d3 3c c6 f9 df bc
       0.005306361 -0.011668573 0.025878653 -0.027340781
000060 fd 6a 7d 3a f7 e6 e2 bc a2 d1 7a 3c 26 5e cd 3a
       0.00096671266 -0.027698023 0.015308769 0.0015668317
000070 99 01 8d bd 78 39 b0 3c eb 33 36 3d 44 95 d4 3c
       -0.0688507 0.021511778 0.044483107 0.025950082
000080 ce 13 2c bd 7e d9 4f bd 6f 66 3f 3c 26 a4 4f bd
       -0.042011075 -0.050744526 0.011682137 -0.050693654
000090 36 62 18 3d 3c 4f 80 bd 5b 4d e5 3c 06 f8 13 bd
       0.037203036 -0.06265113 0.027990988 -0.036125205
0000a0 3b 1f 0e 3d 57 73 b5 bc 55 25 a6 3b bf fd a8 bc
       0.034697752 -0.022149725 0.0050703683 -0.020628808
0000b0 8d de 04 3d b8 8c 2f 3d 1a d9 a4 3c b6 af 62 bd
       0.032438803 0.04285881 0.020123053 -0.055343352
0000c0 01 cf f8 bc bb 1f 17 3c 7f 35 aa bb 6c 38 61 bd
       -0.030372145 0.009223874 -0.0051943655 -0.05498545
0000d0 ab b4 27 bc fa 93 f9 3c 23 d9 8d bc cd a1 3f bd
       -0.010235946 0.030466069 -0.017315453 -0.046785165
0000e0 e7 bd 2d 3d df 32 86 bd 30 66 83 bc 2a 78 89 bd
       0.042417433 -0.06552672 -0.016039938 -0.067123726
0000f0 85 3a 2f 3d 33 b1 1f bd de 92 89 bd 59 20 5c 3c
       0.042780418 -0.03898735 -0.06717466 0.013435447
000100 b3 8e ad bc b7 32 e6 3b 33 6f 05 bc 71 df 66 bd
       -0.021186208 0.0070250886 -0.008144188 -0.056365434
000110 32 f0 2b 3d 3e 2b d8 3c 93 66 60 bc a6 7c 08 bd
       0.041977115 0.026387807 -0.013696331 -0.033322
000120 81 81 07 bd 79 96 5f 3b a6 ef 24 3d af 08 33 3d
       -0.03308249 0.0034116788 0.04026761 0.043709453
000130 6a 8f 5e bd 9f b8 a0 3c c5 f8 38 3d 8e c7 39 bd
       -0.05433599 0.019619284 0.04515912 -0.045356326
000140 b2 f1 1d 3c 20 53 68 bd 26 b9 01 3d 8e 76 bf bc
       0.009640144 -0.0567199 0.031670712 -0.023371961
000150 ea 77 2f bd 29 05 25 3d b9 ac 14 bd b8 c8 75 bd
       -0.04283897 0.040288124 -0.036297534 -0.060005873
000160 1b e7 a0 bc 26 d5 91 bd 01 23 0c 3c f1 01 31 bd
       -0.01964145 -0.07120733 0.008553267 -0.043214742
000170 f3 09 23 bd d2 03 04 bd ad 92 1f bd a2 eb 56 3d
       -0.03980441 -0.032230206 -0.03895824 0.05247081
000180 a6 1b 76 bd 5e bd 0f bd 19 5b 37 3d d7 6b ef bc
       -0.06008496 -0.035092704 0.044764612 -0.029226227
000190 36 62 ff bc 79 57 9a bc 9d 11 3d 3d 4b 58 f7 3c
       -0.03117476 -0.018840538 0.046159375 0.030193469
0001a0 79 cf 92 bd 8b 49 b4 3c 38 f2 4a 3c 4f 6c 71 3c
       -0.071684785 0.022007724 0.012386851 0.014735295
0001b0 8f 23 1e 3d 9f 4f be 3c e8 1d 17 bd a8 b0 84 bd
       0.03860813 0.023231326 -0.036893755 -0.06479007
0001c0 96 28 3d 3c 44 61 48 bc a0 6e 3f bd 8d b6 8f bc
       0.011545321 -0.012230221 -0.04673636 -0.017543102
0001d0 78 cb 1a 3d c8 bd 28 3b 7a b7 3f 3d ee c2 48 bd
       0.0377917 0.0025747884 0.046805836 -0.049014024
0001e0 1c 73 1d 3d a1 46 13 bc b4 91 c4 bc a6 09 92 3c
       0.038439855 -0.008989007 -0.023995258 0.017826866
0001f0 c1 7c e2 bb 84 be 9e bc 72 96 45 3c 0a a0 22 bc
       -0.0069118445 -0.019377954 0.012059795 -0.009925852
000200 79 24 3d ba 7f b9 c0 3c de a2 b3 3b c1 61 4e bd
       -0.00072152127 0.023525951 0.0054820618 -0.050386194
000210 fa 60 91 b9 07 49 bf bc d5 fc 5d bd af e5 e6 3c
       -0.00027728808 -0.023350252 -0.054196198 0.028185694
000220 2b e7 43 bd aa 98 14 bd 3d 0a 2c bd 91 88 ce bc
       -0.04782788 -0.036278404 -0.04200195 -0.025211604
000230 42 4c c8 bc 0f 93 2e 3d 14 a4 3f 3d 1c 6d 24 bd
       -0.024450425 0.042620715 0.046787336 -0.040143117
000240 be ad 00 bd cc 3f d1 ba bc 47 c1 3b 5b ba 85 bd
       -0.031415693 -0.0015964448 0.005898444 -0.06529685
000250 8f 8a 10 3d 97 bf 3b 3d 94 a0 fe bc 15 f4 17 3d
       0.03528839 0.04583701 -0.031082429 0.03709801
000260 81 6f ba 3c 6d fa 3d 3d 34 12 19 bd 16 95 41 3d
       0.022758247 0.046381403 -0.037370875 0.04726132
000270 91 0c 1b 3d 64 c4 23 3d 3c 94 04 bc a3 b3 5b bd
       0.03785378 0.039982215 -0.008091982 -0.05363811
000280 ac e3 80 bd f8 70 7c bd f8 b8 ca bc c8 1b 5b bc
       -0.06293425 -0.061631173 -0.024746403 -0.013373323
000290 e9 63 81 ba a7 06 ec bc 73 cb 32 bc 6f 2a 8b bd
       -0.0009871694 -0.028811766 -0.010912764 -0.06795203
0002a0 02 e3 f3 bc e4 d2 4f bd 90 79 83 3c 19 72 13 bd
       -0.029771332 -0.05073823 0.016049176 -0.035997484
0002b0 d0 81 6e bd f0 4f 6b bd b4 2b f0 bc c3 3a d3 3c
       -0.058229268 -0.05744928 -0.029317714 0.025784856
0002c0 30 88 46 3c ad 41 54 bd 55 3f fd bc df 26 a8 3c
       0.012117431 -0.051820446 -0.030913988 0.020526348
0002d0 6d 34 38 bd b5 2c 81 bd 26 6c 82 bd 78 a3 2f 3d
       -0.044971872 -0.06307355 -0.06368284 0.042880505
0002e0 8a 4d 79 bd 0a a3 59 bd b4 52 5c ba 98 35 e0 3c
       -0.060864963 -0.053134 -0.0008404658 0.027369305
0002f0 90 55 a1 bc 85 20 77 bc 95 c1 2f 3d fd 32 4b 3d
       -0.01969412 -0.015083437 0.042909224 0.049609173
000300 ca 39 1c 38 44 f8 15 bd 63 0f fb bb 5e de 94 bc
       3.724712e-05 -0.036613718 -0.0076617463 -0.01817244
000310 f8 a7 60 bd 58 c6 3d 3c 69 55 91 3c 50 dc 54 bc
       -0.054847687 0.011582933 0.017740922 -0.01299198
000320 3a 4c be bc 0c b5 30 3d a8 3d fa bc 4b 6b bc bb
       -0.023229707 0.04314141 -0.030546978 -0.005750095
000330 45 f9 dc 3c 1b 69 31 3b 16 06 58 3c f6 3c 49 3d
       0.02697433 0.0027070704 0.013185045 0.049130403
000340 03 99 48 bc f7 aa 51 bd 11 58 04 bd a5 6d 2e bd
       -0.012243512 -0.051188435 -0.03231055 -0.042585034
000350 de db 77 bd c2 b7 93 bd 2b 5c 6d bd 3a cb 55 bd
       -0.060512416 -0.072127834 -0.057949226 -0.052195765
000360 5c 4c 34 3d 1d 39 44 3c 5f c3 7b bd 58 27 16 bc
       0.044018134 0.0119765075 -0.061465617 -0.009164654
000370 07 51 49 bd 45 fb 4b 3c 70 7b a0 3c 5d 5f 32 3d
       -0.04914954 0.012450044 0.01959011 0.043547977
000380 c9 da 81 ba 4b 03 91 3c 8b 8e 38 bc 63 70 fe 3b
       -0.0009907122 0.017701766 -0.011264454 0.0077648624
000390 6d c6 bd bb 29 70 67 bc 4e bd 43 bd 56 5a b5 3c
       -0.0057914765 -0.014125862 -0.047787957 0.022137802
0003a0 ce c6 29 3d c5 0e 2e 3d 5a 12 49 3c 25 99 4e bd
       0.04144936 0.042494554 0.012272442 -0.05043902
0003b0 5b 81 11 bb a3 a8 62 3d c8 de 62 bd e2 14 a6 3c
       -0.0022202346 0.055336606 -0.055388242 0.02027363
0003c0 cd 2e 12 bd 08 c7 37 bd 56 18 4f bd d8 51 74 3c
       -0.035689164 -0.044867545 -0.050560318 0.014912091
0003d0 e7 eb 0b bd 13 f2 9e bc 4c c8 20 3d 84 29 13 bc
       -0.03416052 -0.01940254 0.039253518 -0.008982066
0003e0 4c 6f 16 bd a3 59 72 bc 35 77 f2 3b 64 1e 7c bd
       -0.036727235 -0.014791879 0.0073994645 -0.06155242
0003f0 3c 32 38 bd 49 ee 6a bd 54 8b 4e 3d ae 6b 34 3d
       -0.044969782 -0.057356153 0.050425842 0.044048004

hidden.bias f4 [128]
000000 75 87 1d bd 42 68 a7 3d 39 2d 44 3d 68 a7 25 bd
       -0.03845926 0.081741825 0.04789469 -0.040442854
000010 e3 47 cf bc c4 2a 0a bd 84 0a 31 bd d2 f0 8f 3d
       -0.025302833 -0.03373219 -0.04322292 0.07028355
000020 82 8c c3 3b 22 c6 f5 3c 82 29 af 3c 92 6e b1 bc
       0.0059676776 0.030001704 0.021382097 -0.02165917
000030 76 ce 67 3d e2 c8 1c 3d 02 ed 06 3d b4 bd a3 bc
       0.05659338 0.038277514 0.032940872 -0.019987918
000040 8f ec 95 3d 1d b4 22 ba 83 4f 5a 3d f2 ef 0a 3c
       0.073205106 -0.00062066485 0.053298485 0.008480059
000050 a2 fc be 3c 9c 24 8a 3c 7a 76 87 bc bd 50 05 bd
       0.023313824 0.01686316 -0.016535986 -0.0325477
000060 80 cf e1 bc 46 d5 36 3d 7b 23 5a bb fd 68 4f 3b
       -0.027564764 0.044636987 -0.0033285308 0.0031648271
000070 d9 ce c4 3d 93 33 ca 3c fb cb 81 3d f9 f0 4d bd
       0.096097656 0.024682796 0.06337734 -0.050278638
000080 f8 31 78 bd 0b 85 03 bd be e5 8f 3d 01 15 94 bc
       -0.06059453 -0.0321093 0.07026242 -0.018076422
000090 a4 c9 a9 3d 9e 8f 94 3d 48 ef ca 3d 1b 41 2e 3d
       0.08290413 0.07253955 0.099089205 0.04254256
0000a0 66 55 5f bd f2 d4 c7 3c 9a 96 0b bd 7f 20 7a 3d
       -0.0545248 0.024393532 -0.03407917 0.061066147
0000b0 48 ab 67 3d fb 60 83 3d 3f de 32 3d 4a 03 51 3c
       0.05655983 0.06414982 0.04366898 0.012757132
0000c0 33 35 84 3d 31 61 f7 bb 2f 9a 77 3d 36 1a f0 3c
       0.064554594 -0.007549428 0.060449775 0.029309373
0000d0 b8 93 95 3c 9d 7b 1a bd 12 e9 2a 3d ec 18 20 3c
       0.018258914 -0.037715543 0.04172618 0.009771567
0000e0 e0 54 55 3d fc 4d 54 3b 03 08 96 3c 5c 1d 29 bd
       0.052082896 0.0032395115 0.018314367 -0.041287765
0000f0 c7 a6 b3 3d 0b 9b 7b 3d f9 34 8a 3c 8d fa 75 bd
       0.08772045 0.061427157 0.016870962 -0.060053397
000100 a1 65 0e bc 7d cd 12 3d 04 dd de 3c a7 b1 50 bc
       -0.008691222 0.0358405 0.027204998 -0.012737668
000110 05 17 c6 3d 4d c4 75 3c 87 4c 46 bc 35 21 80 bd
       0.096723594 0.015000415 -0.0121032065 -0.06256334
000120 91 42 c1 3b 92 d8 23 bd b2 31 fc bc 14 3d a2 3d
       0.005897828 -0.04000146 -0.030785415 0.07921806
000130 f8 68 03 bd 21 7e d3 3d 28 a6 ec 3c 0f e8 f8 3d
       -0.032082528 0.103267916 0.028887823 0.12153637
000140 33 08 b5 bc 40 ec 41 3a 2b 5b 80 3d 60 36 1a bc
       -0.022098636 0.000739757 0.06267389 -0.009412378
000150 03 18 3b 3d f9 9c 15 be 52 f3 b7 3d 7f 52 12 3e
       0.045677196 -0.14610662 0.089819565 0.14289282
000160 74 08 8c 3c 71 a0 be 3c e0 56 a4 3d b3 13 17 3d
       0.017093875 0.023269864 0.080243826 0.03688402
000170 b9 88 07 bc 70 8d fa 3b bc 37 96 bc a8 07 6b bd
       -0.008272343 0.007646255 -0.018337123 -0.05738035
000180 53 36 d2 3c 78 8e 4f 3d 51 ee 7c 3c a3 84 87 bc
       0.02566067 0.05067298 0.015437678 -0.016542738
000190 74 b6 5c bd 01 a0 36 bd 49 88 a0 3c ce 4c 9f 3d
       -0.05388494 -0.044586185 0.019596236 0.07778321
0001a0 40 3b 0e 3d f3 35 4d bd 37 9d 70 bd bb 24 07 bc
       0.034724474 -0.050100278 -0.05874368 -0.008248503
0001b0 81 90 13 bc 4c a1 ad bc 1b 22 82 bd a7 95 b3 3b
       -0.00900662 -0.021195076 -0.06354161 0.0054804864
0001c0 97 58 61 3d 52 6c 09 bd 8e fb 45 bd 1a 70 55 3d
       0.055016126 -0.033550568 -0.048335604 0.05210886
0001d0 d4 48 8c 3b 01 f0 7d bc ad f2 84 3c 3c 1f c0 bc
       0.0042811427 -0.015499116 0.016228998 -0.023452394
0001e0 8a ac a3 3d 7d 2b 87 bd ec 82 56 3d 3e 3c 1e 3c
       0.079918936 -0.066000916 0.05237095 0.009657918
0001f0 9c 5b 7c 3c 1f f3 fd 3b c6 01 5f 3c 9e 9a 4a bd
       0.015402701 0.0077499296 0.013611263 -0.04946386

op.weight f4 [3, 128]
000000 ae ac 0f 3d 80 35 45 bc 3c 06 44 be fc be d1 be
       0.03507679 -0.012036681 -0.19143003 -0.40966022
000010 dd 4f ab 3d 0a f8 b7 3d 8f e9 24 be 19 6a 2e be
       0.08364842 0.089828566 -0.1610472 -0.1703266
000020 b8 fa a0 be da cd 93 be 54 0f b0 bd 5b 75 9b be
       -0.31441283 -0.2886799 -0.085966736 -0.30362973
000030 9f ee 51 be d4 2b 17 3e ba 31 93 be 86 a4 d5 bc
       -0.20501183 0.14762813 -0.28748876 -0.026079427
000040 5b 54 a4 3e 16 78 29 3c 6f 59 59 bd 69 8d 13 bf
       0.32095608 0.010343572 -0.053063806 -0.5763765
000050 3a a8 07 3e ba 69 7a 3d 51 ba 05 3e 4e e6 52 be
       0.13247767 0.061135985 0.13059355 -0.20595667
000060 c3 73 b2 be 02 3d 53 be 7f 03 18 3c 46 ab 9a 3e
       -0.34853944 -0.20628741 0.009278177 0.30208796
000070 25 c5 59 3e 6e 39 21 3e 21 ba 8e be 50 90 01 be
       0.21266611 0.15744564 -0.2787638 -0.12652707
000080 78 f2 5d 3d 98 34 0c bd f1 43 a2 bd cb 7f 76 bd
       0.054186314 -0.034229845 -0.07923115 -0.060180467
000090 76 c3 36 be 3a 8e 80 be bf 3e 1c 3e 54 8a 19 3e
       -0.17848 -0.2510851 0.1525831 0.14994174
0000a0 90 6e 0c be 18 3d b7 bd ef 9a 8d 3d 70 51 98 be
       -0.13714051 -0.089471996 0.06914317 -0.29749632
0000b0 7f 48 e6 3d 9e fe 59 bd 43 fd 46 be d0 c2 3c be
       0.11244296 -0.053221337 -0.19432549 -0.1843369
0000c0 5d 37 42 be 10 0e 21 be b7 35 54 bc 56 34 b4 bd
       -0.18966432 -0.1572802 -0.01295226 -0.08799045
0000d0 5b 52 75 3d 83 47 46 be 06 2a 04 bd ec fa 61 3e
       0.059892993 -0.19363217 -0.03226664 0.22068375
0000e0 b5 07 fa 3c 3a 42 42 be 41 78 62 be 13 4e 36 3c
       0.030521253 -0.18970576 -0.22116186 0.011127013
0000f0 b3 a4 13 3e 11 39 3a be 40 5a 7e 3d ab c4 b6 3c
       0.14418297 -0.18185832 0.062097788 0.022310575
000100 9e c3 1c 3e b9 0f c6 3d fa 6a a7 3d 05 41 2c be
       0.15308997 0.096709676 0.08174701 -0.16821678
000110 de 44 e6 3d c9 4b da 3e bf 64 a0 3b bf 2f c9 bd
       0.11243604 0.42635944 0.0048948224 -0.0982356
000120 4b 41 26 bd 5a 3b bf 3d 34 c9 92 bd 25 04 b0 3d
       -0.040589612 0.09337492 -0.07167283 0.085945405
000130 77 6a 4a bc e2 37 a3 3e 6d ef 88 3d 20 7e 1b 3e
       -0.012354485 0.31878573 0.06686292 0.15184832
000140 98 04 6f be ac 7f 39 be 5a 2a 53 3e be 94 fd 3d
       -0.23341596 -0.18115109 0.20621625 0.12381886
000150 14 0e ed bc 2b 4f ab 3e 91 47 0e be ff 6c 5c 3e
       -0.028937377 0.33458838 -0.13894488 0.21525954
000160 67 e6 1e 3e 4f 04 83 bd 74 eb 5a bd ab 72 31 be
       0.15517579 -0.06397306 -0.0534472 -0.17328899
000170 c9 a2 10 be 8f b5 3e be 34 77 d5 3e e8 af c1 bc
       -0.14124598 -0.18623947 0.41692507 -0.023643449
000180 1f d1 40 bd 90 7e 2e 3e 0c da 82 3d 56 a6 5c 3d
       -0.047074433 0.17040467 0.063892454 0.053869568
000190 a3 be 1a ba 54 1b 03 3e 77 50 7d bd 0d a2 69 3d
       -0.0005903041 0.12803394 -0.061844315 0.05703931
0001a0 b8 1c 52 3d 8e 13 35 be e7 23 35 3b 2b 3e c2 3d
       0.05129692 -0.17683241 0.0027639808 0.09484514
0001b0 7c 90 16 3d 7e 49 96 3d 2d 83 fe 3c 44 be 55 3d
       0.036758885 0.07338236 0.031068409 0.052183405
0001c0 8a 14 7b be cd 78 f1 be 5d 35 9f 3d c0 9b c7 be
       -0.24519554 -0.47162476 0.0777385 -0.38986015
0001d0 01 27 3b bd ba 86 0a be 83 a6 45 be 0c 6d bf bd
       -0.045691494 -0.13527957 -0.193018 -0.09346971
0001e0 59 a6 34 be 13 05 5f bb dc 28 d9 3d 4d 32 b0 3c
       -0.17641582 -0.0034030124 0.106034964 0.02150836
0001f0 2b b8 1c 3e d0 6a 1a 3d e0 5b 08 3e 96 a5 35 3c
       0.1530463 0.03769952 0.13316298 0.011086842
000200 97 78 9a bd 67 bd a5 bb 8d bc cb 3c 61 35 7c 3d
       -0.07542532 -0.005057979 0.024870181 0.061574344
000210 f4 7e 29 3e 3f 0e b7 be a3 7b 61 bd 9d cf a3 3d
       0.16552335 -0.35753056 -0.05504955 0.079985835
000220 f4 3a 3f 3d 33 67 2b 3e fc 86 bc 3d 2f 90 4e 3d
       0.04668708 0.16738586 0.09205434 0.050430473
000230 74 2c 69 3a 3b 91 fc 3d 35 32 98 bc 35 e4 cc 3c
       0.00088948687 0.12332388 -0.018578628 0.025011161
000240 3e b3 5c be bb de 5f bd 8e 05 88 be 48 31 3b 3c
       -0.2155275 -0.05465577 -0.26566738 0.011425324
000250 f1 e5 8b 3c ae 2b 45 bd 15 13 ac 3d 5d 0b 6b be
       0.017077418 -0.04813736 0.08402077 -0.22953553
000260 97 6c 5f be 7e 36 75 bd 5d 43 7b 3c 55 ef 3d 3e
       -0.21818767 -0.05986642 0.015335885 0.18548329
000270 c4 1b 4e be 66 2c dc 3c 9b 11 74 bc 8e 11 6e 3e
       -0.20127779 0.02687664 -0.014896776 0.23248884
000280 32 4d 07 bd 78 1b 86 bd 79 38 01 3e f8 1a 5c 3e
       -0.033032604 -0.06548208 0.12619199 0.21494663
000290 37 56 90 3d 20 eb d4 3d ef 58 c9 bc 1e 0b e1 be
       0.07047694 0.10396409 -0.02457854 -0.43953794
0002a0 c0 ea 89 3d 32 3d 82 bd 51 90 ab 3c 47 7b 8e be
       0.06734228 -0.06359328 0.020942839 -0.27828428
0002b0 80 62 c7 3d d8 5e d2 3d 98 ec 24 3d 12 ea 1c 3d
       0.09735584 0.10271996 0.040264696 0.038309164
0002c0 da b4 f2 3d 8c 7e 60 3e b7 9a ac be 9f 35 32 3d
       0.11850901 0.21923274 -0.33711788 0.04350817
0002d0 96 43 e8 3c 33 6f 35 3d 9c 32 c9 3d 06 e2 69 be
       0.02835254 0.0442955 0.09824106 -0.22840127
0002e0 77 df b1 3d 01 b0 b5 3c 03 87 5b 3d 47 0e 40 3e
       0.08685201 0.022178652 0.053595554 0.18755446
0002f0 0b b1 5a bb 21 f6 70 3d 84 e5 6a 3d 72 3c 80 39
       -0.0033369686 0.058828477 0.05734779 0.00024459098
000300 3e f6 92 3d d6 c1 0f 3e eb bb 1e 3e 9d ad e6 3d
       0.07175873 0.14038786 0.15501373 0.11263583
000310 12 79 af bb 4d 5c 11 bf ca 6e 9f 3e 4a 22 e2 3d
       -0.005355009 -0.56781465 0.31139213 0.11041696
000320 a7 bd 28 bd bf 4e 44 be a2 4f 93 3d ad 2e 35 be
       -0.04119649 -0.19170664 0.07192923 -0.17693587
000330 0b bf 26 bd 27 9f 9e be 7e 97 50 bd 66 02 54 be
       -0.040709537 -0.309808 -0.050925724 -0.2070404
000340 97 01 0d 3d 44 8e 95 3d 21 b1 88 bd 5f 90 b5 be
       0.034425344 0.07302526 -0.0667441 -0.3546171
000350 e4 bf 75 be a6 c6 55 bd 2c 88 e3 3d c0 c1 bd bd
       -0.23998982 -0.0521914 0.11109957 -0.092654705
000360 f0 d1 a2 bc 33 a2 9b bd ff 72 8e 3e 62 63 c1 bd
       -0.019875497 -0.075992964 0.2782211 -0.09442784
000370 bf f6 5a bd 4f d4 c9 3d 7c 9f e2 bd ae 4b b6 bc
       -0.05345797 0.09854948 -0.110655755 -0.022252884
000380 e2 e2 f8 3d 8a 1a 86 be 91 9e 3b 3e ea a3 71 bd
       0.121526495 -0.26192123 0.18322207 -0.05899421
000390 4f 2c fa 3d c2 d1 24 be 8e a4 36 be 12 38 68 3d
       0.122154824 -0.16095641 -0.1783621 0.056694098
0003a0 10 3e 87 3c b6 30 8b 3d ae 8a 01 ba 99 1e 93 be
       0.016509086 0.067964 -0.00049416244 -0.28734282
0003b0 36 32 95 3c 04 ed 7e bc 89 59 8e 3c 59 f1 3c bd
       0.018212419 -0.015559439 0.017376678 -0.046128605
0003c0 46 60 02 3d 11 4c 3e be 49 32 d2 bc c9 f9 62 be
       0.031830095 -0.18583705 -0.025658743 -0.22165598
0003d0 19 68 65 3e 75 8e de 3d 65 73 f3 3d 56 99 6e 3e
       0.22402991 0.10867015 0.11887244 0.2330068
0003e0 99 41 cb 3d 93 91 0a 3c d6 00 18 3e c4 63 1c bd
       0.09924621 0.008457559 0.14844069 -0.03818108
0003f0 b9 f9 2c 3d 79 34 57 bd 8f 62 1b bc fa c2 97 bd
       0.04223034 -0.052540276 -0.009483947 -0.07410236

op.bias f4 [3]
000000 7c ba 56 3d c1 2c c9 bd 14 04 96 3d
       0.05242394 -0.09822989 0.073249966
