models/model_ext_agent.pth (torch, 153752 bytes, 6 tensors)

inp.weight f4 [256, 16]
0.08933913 0.18989104 0.1868089 -0.23867182 -0.27306953 -0.05265762 -0.23152447 0.111708656
0.051170822 0.0136371665 -0.16088012 0.044331085 -0.13701865 0.09242199 0.17697804 0.052377604
-0.028446253 0.21533604 0.19743367 -0.007634439 0.30235946 0.10924546 -0.0064192675 0.046708293
-0.017186658 0.09835369 -0.12952125 0.162357 -0.104555376 -0.32351717 -0.1764057 -0.2582172
0.32571307 0.13229248 0.14824061 -0.22986531 -0.094028845 -0.116078824 -0.045227908 0.16208631
-0.13764913 0.12995547 -0.018639639 0.13064586 0.33909693 -0.114884645 -0.01677522 0.3392914
-0.1387578 0.12421839 0.076750286 -0.16000235 -0.11632725 0.0037304233 -0.09523716 -0.030669998
0.2789995 0.023298489 0.0025567887 0.07084737 -0.10003554 -0.04989587 0.022499202 -0.20735647
-0.17644924 0.10592628 -0.5317117 0.18499321 -0.17399174 -0.09606344 -0.20412175 0.030536316
0.19767241 -0.058385015 -0.089596994 -0.1469458 0.32813513 -0.26930726 0.22395661 -0.15011069
0.015981873 0.03255185 -0.036982678 -0.24007687 0.19597015 0.11225434 -0.13013685 0.27730054
0.013555237 -0.105336845 -0.044959042 0.0032682014 0.06619084 -0.22671692 -0.038014714 -0.23374724
0.07194636 -0.08591799 -0.4768319 0.0015749674 -0.140355 0.13853605 -0.098730646 -0.19909728
-0.23733665 0.18952489 -0.08043403 0.15342592 0.2097364 0.14603113 -0.066532314 0.16150302
0.34421518 -0.183333 0.17286013 -0.30860278 0.1869348 0.10697213 0.16038154 -0.041487575
0.054073483 -0.19558662 -0.2673812 -0.2524364 0.34976926 0.04589512 -0.077868365 0.13774993
-0.22008845 0.14799021 0.11825905 0.063278936 -0.25222677 0.19068019 0.12749666 -0.049365487
0.33840963 -0.10560034 0.037676226 0.072022945 -0.12387494 -0.28595537 -0.084911525 -0.26067132
-0.31156313 -0.22933252 -0.9975591 -0.123479955 0.16055752 0.2759432 -0.024503442 -0.026018417
-0.085365795 -0.01351487 -0.020829892 0.101202905 -0.14219485 0.077946566 -0.13200782 -0.096601225
0.27319044 0.038466897 -0.06096613 -0.24940763 0.057568517 0.20094025 -0.11888245 -0.16006844
-0.18497005 0.10365027 -0.112492085 -0.16395749 0.3466787 0.09225727 -0.16789207 0.2832772
0.30147988 -0.11224216 0.20303771 -0.15020388 0.28594732 0.22781526 0.09296626 0.19902448
0.15474066 0.0018132257 0.06134366 0.14685911 0.19611344 -0.076372966 -0.09109724 -0.040555064
-0.02613063 -0.053307924 0.17577846 -0.042754933 0.19159123 -0.14038165 -0.06403984 0.19328427
-0.25419447 -0.23040642 0.24039687 -0.18261887 -0.091543026 -0.21549827 0.17126682 -0.14250241
-0.31858763 -0.08235189 -0.002426098 0.0071129235 -0.1112063 -0.24855894 0.10570592 -0.20216455
0.20624207 -0.023612715 0.13464285 -0.033337872 -0.068301715 0.18794353 -0.2162411 -0.2351395
0.08281004 0.0011424825 0.38313922 0.18365537 -0.19933996 0.09597763 -0.16993909 0.16271073
0.20638847 -0.27802628 0.17548065 -0.055729274 -0.21039106 -0.070731886 0.0372392 -0.29397961
-0.0001470811 -0.038015716 0.21427993 -0.07440823 0.1509514 0.30632058 0.18711405 -0.2937917
0.37585548 0.12188369 -0.20234556 -0.26157117 0.16416301 -0.17469649 0.18684478 0.2655661
00000000: 6ff7 b63d cc72 423e d54a 3f3e 6366 74be
00000010: c5cf 8bbe 84af 57bd c014 6dbe 82c7 e43d
00000020: 7f98 513d 6c6e 5f3c c2bd 24be 8394 353d
00000030: 9e4e 0cbe be47 bd3d bb39 353e e689 563d
00000040: 1e08 e9bc 0d81 5c3e 0d2c 4a3e 512a fabb
00000050: dcce 9a3e 15bc df3d b858 d2bb 3251 3f3d
00000060: 09cb 8cbc a96d c93d 38a1 04be ea40 263e
00000070: 2121 d6bd 0ba4 a5be b2a3 34be 0b35 84be
00000080: ddc3 a63e ae77 073e 63cc 173e d061 6bbe
00000090: 3292 c0bd bcba edbd e640 39bd f4f9 253e
000000a0: e5f3 0cbe 0c13 053e 28b2 98bc 07c8 053e
000000b0: 1d9e ad3e a448 ebbd 306c 89bc 9ab7 ad3e
000000c0: 8616 0ebe 3666 fe3d 412f 9d3d a8d7 23be
000000d0: fb3c eebd 1e7a 743b b30b c3bd a63f fbbc
000000e0: 06d9 8e3e 79dc be3c cc8f 273b 6d18 913d
000000f0: 6fdf ccbd 9d5f 4cbd 3f50 b83c 4155 54be
00000100: 1caf 34be e1ef d83d 421e 08bf dc6e 3d3e
00000110: e42a 32be e9bc c4bd 4b05 51be 4c27 fa3c
00000120: a36a 4a3e 2025 6fbd a17e b7bd f678 16be
00000130: 5401 a83e a4e2 89be e254 653e 9eb6 19be
00000140: 6bec 823c 1755 053d 267b 17bd b6d6 75be
00000150: 66ac 483e 9ae5 e53d 9842 05be 56fa 8d3e
00000160: c916 5e3c d8ba d7bd f926 38bd 522f 563b
00000170: 108f 873d 7b28 68be 51b5 1bbd 705b 6fbe
00000180: 9d58 933d c5f5 afbd 5023 f4be 236f ce3a
00000190: 39b9 0fbe 65dc 0d3e 4b33 cabd 28e0 4bbe
000001a0: 6108 73be d012 423e 99ba a4bd af1b 1d3e
000001b0: 24c5 563e 2f89 153e 1842 88bd 0c61 253e
000001c0: f93c b03e a5bb 3bbe 3f02 313e 2f01 9ebe
000001d0: d66b 3f3e 3414 db3d 0f3b 243e e0ee 29bd
000001e0: 287c 5d3d dc47 48be 30e6 88be 583f 81be
000001f0: f514 b33e 85fc 3b3d 7379 9fbd 510e 0d3e
00000200: de5e 61be bf8a 173e cd31 f23d 6398 813d
00000210: de23 81be ab41 433e 7c8e 023e 7733 4abd
00000220: 0744 ad3e fe44 d8bd 6352 1a3d c480 933d
00000230: 25b2 fdbd be68 92be 18e6 adbd b676 85be
00000240: 3485 9fbe 25d6 6abe 0860 7fbf 0fe3 fcbd
00000250: 3169 243e 6d48 8d3e 71bb c8bc 9324 d5bc
00000260: 43d4 aebd 796d 5dbc 73a3 aabc 7843 cf3d
00000270: 879b 11be 73a2 9f3d 0f2d 07be ddd6 c5bd
00000280: 9edf 8b3e 778f 1d3d 9fb7 79bd b764 7fbe
00000290: f7cc 6b3d 48c3 4d3e a478 f3bd fbe8 23be
000002a0: ca68 3dbe 9846 d43d 4062 e6bd 79e4 27be
000002b0: df7f b13e 61f1 bc3d e6eb 2bbe b609 913e
000002c0: 925b 9a3e 38df e5bd 1ee9 4f3e 0ccf 19be
000002d0: b067 923e 6748 693e 1865 be3d 13cd 4b3e
000002e0: 5674 1e3e c2a9 ed3a 7d43 7b3d 3c62 163e
000002f0: f6d1 483e 6e69 9cbd 3191 babd 111d 26bd
00000300: e70f d6bc 6959 5abd 45ff 333e cc1f 2fbd
00000310: 7e30 443e 35c0 0fbe 5227 83bd 50ec 453e
00000320: c725 82be a9ef 6bbe 992a 763e 7100 3bbe
00000330: e97a bbbd 94ab 5cbe 9260 2f3e 27ec 11be
00000340: eb1d a3be 1ca8 a8bd 2cff 1ebb 8713 e93b
00000350: 21c0 e3bd 3c86 7ebe 587c d83d 3904 4fbe
00000360: 1f31 533e 746f c1bc d1df 093e 4b8d 08bd
00000370: c5e1 8bbd 4574 403e 4f6e 5dbe 69c8 70be
00000380: 4f98 a93d 5abf 953a d32a c43e 2710 3c3e
00000390: c61f 4cbe eb8f c43d 8304 2ebe a49d 263e
000003a0: 8057 533e 7659 8ebe 33b1 333e 6144 64bd
000003b0: c170 57be e1db 90bd 2288 183d 7f84 96be
000003c0: c839 1ab9 5eb6 1bbd 336c 5b3e 5863 98bd
000003d0: 0193 1a3e 0dd6 9c3e d39a 3f3e de6b 96be
000003e0: 2170 c03e 289e f93d ad33 4fbe a8ec 85be
000003f0: 591a 283e a3e3 32be 3d54 3f3e 48f8 873e

inp.bias f4 [256]
-0.26928154 0.16542916 -0.13164376 0.14062202 0.058182187 0.100737244 0.0631163 0.14086315
-0.20029804 0.11898734 -0.037896175 -0.10195524 0.14655356 -0.14307436 -0.33714542 -0.12661618
0.077628195 -0.1006643 -0.17957374 0.23642415 0.19577277 -0.063029505 -0.2699032 0.1733088
-0.013726026 -0.17495967 0.036518853 -0.25060183 -0.04615469 0.13334726 0.20246668 -0.13867623
0.21009165 -0.055639774 -0.32667106 -0.19321863 -0.07106881 -0.23795553 0.0387484 -0.19420011
0.22112969 -0.09177379 -0.26330408 0.062368102 -0.14895713 -0.2639047 -0.25878486 0.09220539
-0.011323608 -0.057166398 0.058757268 -0.021691082 -0.2436032 0.06938866 -0.14081016 0.03626535
-0.25273657 0.064508006 -0.032463383 -0.10903481 -0.21947892 -0.115005545 -0.048758414 -0.24683566
-0.1755948 0.09441495 0.22233191 0.10021123 -0.038975082 -0.1465176 -0.13301842 -0.031121077
0.036586665 0.056751236 -0.30289996 0.2117564 -0.0042751622 0.093413174 -0.013857843 -0.29786175
-0.001281054 -0.042435423 0.07965742 -0.016941061 -0.12927945 0.10681463 0.028690303 -0.28652596
-0.11049532 -0.06748052 0.009746471 -0.17600745 0.119338974 -0.14794335 0.17889091 -0.20590688
-0.19250517 -0.122254945 -0.1858731 -0.18366075 0.1698739 -0.1686409 0.13504913 -0.03506459
0.03584621 -0.29137388 0.046575822 0.012475035 -0.006339638 0.05500167 0.04260418 0.16367318
-0.17673108 0.12716098 0.040674802 -0.2998831 -0.16806428 -0.17426853 -0.27362955 -0.21529216
0.043913335 -0.060116716 0.17193627 -0.06370336 0.23766641 -0.2773516 0.101254426 0.21215957
-0.0124974055 0.23277467 -0.24624081 0.1714458 0.21875718 -0.23858964 -0.11520142 0.09951971
0.18558677 -0.13989265 0.1899085 0.13417922 0.09293127 0.03412177 -0.14667033 0.1013156
0.0035001696 -0.08013982 -0.112143956 -0.21775983 0.044360828 -0.2142104 -0.09872713 -0.17721516
0.15185513 -0.21741742 -0.19493234 -0.051238153 0.0937124 -0.16066825 0.24848816 0.16186629
-0.20083043 0.022699641 -0.17470871 -0.20216894 0.15862538 -0.15552187 0.049368083 -0.19203609
0.13548107 -0.11980579 0.23443542 0.14401403 0.258485 0.008478672 0.0412145 0.14172617
-0.07521351 -0.070029594 0.07310021 0.09569929 0.18765718 -0.12619646 -0.24769819 0.0959099
0.08512149 -0.28854257 0.13954952 0.102568515 0.078024425 -0.020231796 -0.030924857 0.19520317
0.12128296 -0.060537755 -0.21455418 0.1781939 0.012570343 -0.30956236 -0.057540696 -0.18345487
0.14919634 0.022136299 0.23239085 0.020918574 -0.23931532 -0.0077973753 -0.01690367 0.1895428
0.19445299 -0.18233459 -0.042259086 0.18253592 -0.006628695 -0.24480231 0.06516851 0.059626594
-0.11613755 -0.104346946 -0.1461478 -0.09055972 0.048878584 -0.13118546 -0.1574081 0.053668145
0.11695981 -0.036691878 -0.20953858 0.098152295 0.19893974 -0.26688915 -0.17688483 -0.009143266
0.0668235 0.012403831 -0.17992318 0.07579119 0.13011976 0.050807286 -0.008806645 0.09990495
0.1178245 -0.12282665 -0.11539481 0.006771076 0.044593595 -0.12060536 -0.12863246 -0.0238918
-0.020159924 0.04479675 0.16103828 -0.04298837 0.160756 0.061484504 0.036524538 0.07861646
00000000: 45df 89be 4366 293e 9fcd 06be 38ff 0f3e
00000010: 7250 6e3d 544f ce3d 1e43 813d 6e3e 103e
00000020: ee1a 4dbe a2af f33d 0539 1bbd e9cd d0bd
00000030: 2312 163e 1682 12be 539e acbe aca7 01be
00000040: 88fb 9e3d 1629 cebd 2ee2 37be 2c19 723e
00000050: a878 483e 9d15 81bd c130 8abe dd77 313e
00000060: 20e3 60bc a128 33be cb94 153d e24e 80be
00000070: b30c 3dbd 2f8c 083e 6d53 4f3e 2401 0ebe
00000080: 4422 573e 88e6 63bd 6e41 a7be 1bdb 45be
00000090: 868c 91bd 9daa 73be a4b6 1e3d 65dc 46be
000000a0: d26f 623e e6f3 bbbd cbcf 86be b275 7f3d
000000b0: 3888 18be 841e 87be 737f 84be 2ed6 bc3d
000000c0: a886 39bc 5027 6abd 76ab 703d 7fb1 b1bc
000000d0: 1e73 79be a41b 8e3d 8a30 10be fa8a 143d
000000e0: b066 81be c61c 843d 53f8 04bd a44d dfbd
000000f0: 15bf 60be 0788 ebbd e7b6 47bd 7dc2 7cbe
00000100: 20cf 33be a05c c13d faaa 633e 8c3b cd3d
00000110: 56a4 1fbd b608 16be fb35 08be a1f1 febc
00000120: e6db 153d fc73 683d b415 9bbe abd6 583e
00000130: a916 8cbb 684f bf3d 020c 63bc 5681 98be
00000140: 0ae9 a7ba c4d0 2dbd 6e23 a33d fbc7 8abc
00000150: d561 04be a1c1 da3d ed07 eb3c 88b3 92be
00000160: 5f4b e2bd 3a33 8abd aaaf 1f3c 4c3b 34be
00000170: fe67 f43d 767e 17be 2e2f 373e 41d9 52be
00000180: 1320 45be cd60 fabd 8555 3ebe 9011 3cbe
00000190: 6cf3 2d3e 33b0 2cbe 524a 0a3e e39f 0fbd
000001a0: 7ad3 123d f52e 95be 4ac6 3e3d 1764 4c3c
000001b0: bdbc cfbb 6e49 613d b881 2e3d f199 273e
000001c0: fef8 34be 7d36 023e 9f9a 263d 478a 99be
000001d0: 0b19 2cbe 7373 32be 2c19 8cbe 8c75 5cbe
000001e0: 78de 333d f23c 76bd 1010 303e e876 82bd
000001f0: d35e 733e 0701 8ebe 7b5e cf3d 5c40 593e
00000200: ebc1 4cbc 7c5c 6e3e 8d26 7cbe 7d8f 2f3e
00000210: e201 603e d850 74be b9ee ebbd fdd0 cb3d
00000220: 750a 3e3e 0540 0fbe 6077 423e 4766 093e
00000230: c052 be3d 45c3 0b3d bf30 16be 8e7e cf3d
00000240: 1a63 653b 5920 a4bd bbab e5bd 6ffc 5ebe
00000250: b3b3 353d f959 5bbe 7331 cabd e477 35be
00000260: e97f 1b3e aca2 5ebe 589c 47be 19df 51bd
00000270: 49ec bf3d 3886 24be ae73 7e3e 47c0 253e
00000280: 7ea6 4dbe 99f4 b93c d7e6 32be 6005 4fbe
00000290: b16e 223e 2041 1fbe 3036 4a3d 1ca5 44be
000002a0: 8dbb 0a3e bd5c f5bd d70f 703e 6a78 133e
000002b0: 2558 843e 21ea 0a3c 89d0 283d aa20 113e
000002c0: 8a09 9abd ad6b 8fbd 90b5 953d fdfd c33d
000002d0: 3429 403e a539 01be 98a4 7dbe 696c c43d
000002e0: 2d54 ae3d dabb 93be 12e6 0e3e 710f d23d
000002f0: 45cb 9f3d 27bd a5bc 2056 fdbc 57e3 473e
00000300: 3363 f83d 70f6 77bd 17b4 5bbe 7678 363e
00000310: d7f3 4d3c f57e 9ebe cbaf 6bbd 98db 3bbe
00000320: edc6 183e 2f57 b53c def7 6d3e 6e5d ab3c
00000330: 130f 75be 2081 ffbb 9179 8abc 8217 423e
00000340: af1e 473e ebb5 3abe dd17 2dbd b2ea 3a3e
00000350: 8635 d9bb 75ad 7abe 1177 853d 043b 743d
00000360: 86d9 edbd dab3 d5bd c5a7 15be 6077 b9bd
00000370: e934 483d 7b55 06be 972f 21be 21d3 5b3d
00000380: a088 ef3d 394a 16bd 4891 56be 1204 c93d
00000390: dcb6 4b3e b2a5 88be 4c21 35be a3cd 15bc
000003a0: c2da 883d 7039 4b3c c83d 38be 6938 9b3d
000003b0: 1d3e 053e 4d1b 503d bf49 10bc f79a cc3d
000003c0: f94d f13d 8a8c fbbd 1d54 ecbd e7df dd3b
000003d0: c6a7 363d f1ff f6bd 3ab8 03be bcb8 c3bc
000003e0: 6d26 a5bc cc7c 373d 38e7 243e 9314 30bd
000003f0: 399d 243e 2dd7 7b3d c19a 153d ab01 a13d

hidden.weight f4 [128, 256]
0.13255323 -0.037163265 -0.16643625 0.026635101 0.040643316 -0.060623363 0.11195834 -0.026777377
-0.13371915 0.07181271 0.01611497 0.059722688 -0.025587754 -0.12527446 0.31980047 0.001987432
0.0022870183 -0.08016997 -0.008799737 0.1252386 -0.09927504 -0.11224153 -0.024189103 0.06028503
0.045150504 -0.034987934 -0.009336528 0.052352432 -0.013846509 0.024907297 -0.119391516 0.102571964
-0.053972244 -0.08095157 0.005631746 -0.10383355 0.108120635 -0.07691797 0.13710938 -0.124649055
-0.056097616 0.08910525 -0.24698655 0.015347524 0.14239942 0.15884027 0.049073633 -0.106801674
-0.07258181 0.06441142 0.00079929474 0.03808012 0.050937913 0.064939104 -0.0769738 -0.12948297
-0.0034374953 -0.16546239 -0.0018415744 -0.0740015 0.10871211 -0.20677033 -0.23359106 0.04124456
-0.018324869 0.035860155 0.1078134 -0.16058725 -0.016708463 0.09427827 -0.03948367 0.052266657
-0.0029081933 -0.01043732 -0.10329179 -0.086558476 -0.14497888 -0.025939737 -0.061933126 -0.18119575
-0.0126422895 0.087578066 0.04974912 -0.0006518327 -0.14034042 0.043534603 -0.11448736 -0.051731266
0.025442299 -0.027402177 0.057452362 0.01563031 -0.17255077 -0.014794008 0.008392173 0.052117836
-0.047869865 -0.103651896 0.128161 -0.28534138 -0.13939112 0.012764016 0.16440366 0.071429096
-0.19680175 -0.08260701 0.054883864 0.06337324 -0.008516908 0.049473677 0.033808146 -0.10846066
-0.0041945763 0.18135448 -0.082236275 -0.18649857 0.1807759 0.0062006675 0.094894506 0.009144883
-0.039478634 0.0013137343 -0.008465369 0.10708087 0.1436359 0.04937669 0.15982424 -0.00983696
-0.0028873913 0.0595723 0.11088772 -0.08994245 -0.03536984 -0.03343473 -0.13340133 0.051931217
-0.12504734 0.036410052 -0.056792606 -0.105827 -0.13966267 0.019045454 0.09581153 0.025370484
0.15358602 -0.39543745 0.12379216 -0.3212926 0.08788858 0.047857516 0.053259835 0.26178455
0.04429909 0.19804244 -0.106957816 0.087801084 0.15212084 0.18544678 0.022350682 -0.027391307
-0.009742359 0.0257061 -0.058452025 0.034037564 0.020373642 0.09501826 0.14602809 -0.25063705
0.0007533338 0.06106641 0.02399737 -0.24013494 -0.053519703 -0.12250544 -0.08581799 0.045933574
-0.017430069 -0.15753245 0.08013137 0.08483462 -0.18293342 -0.25282624 -0.044050757 -0.0051316684
-0.21699223 0.013085795 0.087345764 0.055801608 0.0051176343 0.010399018 0.068278626 0.08007178
0.13079222 -0.0114258295 -0.016713424 -0.012240799 -0.1030888 -0.023988457 0.16252592 0.12939367
-0.0030435307 0.1521574 0.023350995 0.06137457 0.1457813 0.13074479 -0.21989976 0.1723801
-0.08427607 -0.15876079 0.079089195 -0.014556622 -0.3214462 0.10529087 -0.2999596 -0.18898042
-0.007136641 -0.13929772 0.009958356 -0.030326076 -0.043344986 0.0101630725 0.028529057 -0.01969629
0.044094533 -0.057903368 -0.13760969 0.008712143 0.064153366 -0.00697856 -0.14083187 0.11388078
0.04480665 0.033324 0.014663838 -0.046118412 0.03906798 0.011056259 -0.023860764 0.10116722
0.030556176 -0.18836723 -0.61336184 0.082699694 -0.043893244 0.056140468 -0.20263655 0.007315335
0.01830892 0.012944055 0.10356319 -0.06979385 0.027260263 0.07938618 0.16446884 0.045342833
00000000: 09bc 073e 8238 18bd 446e 2abe db31 da3c
00000010: 9b79 263d 3450 78bd 6a4a e53d 3b5c dbbc
00000020: aced 08be 8b12 933d 8b03 843c c79f 743d
00000030: 699d d1bc f347 00be e3bc a33e 933f 023b
00000040: cde1 153b 2730 a4bd c62c 10bc 8c3e 003e
00000050: b650 cbbd e3de e5bd 3a28 c6bc 70ed 763d
00000060: bcef 383d 824f 0fbd 3df8 18bc 816f 563d
00000070: 78dc 62bc 630a cc3c 8a83 f4bd 4011 d23d
00000080: 0012 5dbd f0c9 a5bd 828a b83b afa6 d4bd
00000090: 5a6e dd3d 2b87 9dbd 6766 0c3e 0148 ffbd
000000a0: 9dc6 65bd d07c b63d 0bea 7cbe 2e74 7b3c
000000b0: 27d1 113e 06a7 223e 6f01 493d d6ba dabd
000000c0: c6a5 94bd 22ea 833d c387 513a e6f9 1b3d
000000d0: 46a4 503d cbfe 843d 71a4 9dbd 2f97 04be
000000e0: 9a47 61bb f96e 29be fc60 f1ba 198e 97bd
000000f0: 74a4 de3d 9abb 53be 7f32 6fbe 0ef0 283d
00000100: 091e 96bc 19e2 123d 46cd dc3d fc70 24be
00000110: 30e0 88bc f714 c13d a1b9 21bd 9015 563d
00000120: 6397 3ebb 4b01 2bbc a58a d3bd 9245 b1bd
00000130: 5875 14be 927f d4bc 97ad 7dbd 618b 39be
00000140: 9b21 4fbc 215c b33d bcc5 4b3d c1df 2aba
00000150: 66b5 0fbe 5751 323d 5978 eabd 2ae4 53bd
00000160: 5e6c d03c 887a e0bc 2b53 6b3d 230b 803c
00000170: 26b1 30be 9162 72bc 537f 093c 8379 553d
00000180: 3113 44bd 7247 d4bd a33c 033e 4418 92be
00000190: 8cbc 0ebe 2a20 513c 6f59 283e 6b49 923d
000001a0: 6686 49be dd2d a9bd e7cd 603d d4c9 813d
000001b0: 808a 0bbc e9a4 4a3d 697a 0a3d 9f20 debd
000001c0: a872 89bb fdb4 393e 7e6b a8bd 7bf9 3ebe
000001d0: 511d 393e f82e cb3b 0d58 c23d 6bd4 153c
000001e0: 59b4 21bd 9c31 ac3a 55b2 0abc 374d db3d
000001f0: 4a15 133e 363f 4a3d f7a8 233e 332b 21bc
00000200: 633a 3dbb 1602 743d 1a19 e33d bf33 b8bd
00000210: f7df 10bd dbf2 08bd 5c9a 08be d4b5 543d
00000220: 690c 00be b522 153d 5d9f 68bd d4bb d8bd
00000230: bb03 0fbe 3605 9c3c d638 c43d c3d5 cf3c
00000240: a745 1d3e c776 cabe be86 fd3d 7780 a4be
00000250: eefe b33d 3e06 443d fc26 5a3d a008 863e
00000260: f672 353d a3cb 4a3e b30c dbbd 0ed1 b33d
00000270: 91c5 1b3e c3e5 3d3e c718 b73c bc63 e0bc
00000280: 6a9e 1fbc 9995 d23c 646b 6fbd f96a 0b3d
00000290: a0e6 a63c ef98 c23d 6388 153e 8053 80be
000002a0: 607b 453a c620 7a3d 2296 c43c efe5 75be
000002b0: 7a37 5bbd 22e4 fabd 58c1 afbd d824 3c3d
000002c0: 81c9 8ebc 3050 21be ea1b a43d c6bd ad3d
000002d0: e652 3bbe 7172 81be 916e 34bd 8e27 a8bb
000002e0: 3633 5ebe cd65 563c 56e2 b23d 3a90 643d
000002f0: d4b1 a73b a560 2a3c aad5 8b3d acfc a33d
00000300: 65ee 053e 6733 3bbc 97ea 88bc a28d 48bc
00000310: 3920 d3bd 7183 c4bc 326d 263e c67f 043e
00000320: f975 47bb 26cf 1b3e 964a bf3c e763 7b3d
00000330: b147 153e f6e1 053e 672d 61be 6984 303e
00000340: ef98 acbd 3092 22be 84f9 a13d e67e 6ebc
00000350: 9994 a4be bda2 d73d 4e94 99be 1584 41be
00000360: 7cda e9bb 10a4 0ebe 5f28 233c 646e f8bc
00000370: 838a 31bd 0483 263c c5b5 e93c 1d5a a1bc
00000380: 789c 343d 152c 6dbd 8ee9 0cbe 60bd 0e3c
00000390: d762 833d 67ac e4bb 3b36 10be 543a e93d
000003a0: 2e87 373d bf7e 083d 9840 703c a9e6 3cbd
000003b0: bf05 203d 5025 353c a677 c3bc c230 cf3d
000003c0: f250 fa3c 57e3 40be 4805 1dbf 755e a93d
000003d0: 67c9 33bd 8cf3 653d f57f 4fbe 7ab5 ef3b
000003e0: 97fc 953c 4d13 543c f018 d43d 14f0 8ebd
000003f0: ea50 df3c 3995 a23d 856a 283e 68b9 393d

hidden.bias f4 [128]
-0.008727311 0.115088075 0.0061074723 0.038081143 -0.031818055 -0.029050114 -0.062037174 0.08030014
-0.024726942 0.008804116 0.05129171 -0.006169122 0.054098837 0.041065563 0.028363531 -0.022973623
0.034246482 -0.0015917891 0.03953659 0.02664196 0.010361033 0.0009270045 -0.00863494 -0.030024102
-0.072997466 0.010430966 0.09205425 0.062086917 0.051801138 0.025871087 0.03775829 -0.04045062
-0.056172073 -0.020892335 0.066836625 0.027032582 0.06305621 0.08971212 0.10410615 0.01879535
-0.045891516 0.016241241 -0.03581837 0.07246349 0.088182226 0.056211066 0.07301834 0.012275005
0.07347488 0.028066058 0.058396187 0.036872998 0.08358387 -0.036796115 0.1202881 0.010982371
0.05119246 0.027957223 0.019874284 -0.03214572 0.10754106 0.047658816 0.088207535 -0.041659266
0.0038406455 0.03795055 0.05728776 -0.023518108 0.08910078 -0.0016523956 -0.018687457 -0.024501432
0.0055419276 0.0026592219 -0.0214552 0.06939159 0.0006342964 0.07196806 -0.008033355 0.06985254
-0.046822652 0.0059423223 0.047858883 -0.005703689 0.054074924 0.026931852 0.0726956 0.11843636
0.025845535 0.020565627 0.058857467 0.053280246 -0.0037998105 0.009264871 -0.028444443 -0.057229493
0.055095583 0.048602648 0.02556227 0.014891912 -0.035279725 -0.026665725 0.03809711 0.08472488
0.09982846 -0.045544717 0.0025271736 -0.044161566 0.0027370558 -0.022617213 -0.06246744 0.005632619
0.09744028 -0.018842215 -0.010381926 0.031748552 0.032581072 -0.0005570838 0.026374595 0.007597118
0.057503402 -0.06626229 0.0737156 0.039264724 -0.015391314 0.035608735 0.030836465 0.005109156
00000000: fffc 0ebc 4cb3 eb3d 3121 c83b f9fa 1b3d
00000010: a653 02bd 81fa edbc b11a 7ebd 6674 a43d
00000020: 2890 cabc 243f 103c 4217 523d 5926 cabb
00000030: be96 5d3d 5d34 283d a35a e83c 2e33 bcbc
00000040: 0a46 0c3d 94a3 d0ba 1ff1 213d 3d40 da3c
00000050: 52c1 293c 3802 733a 9079 0dbc 1bf5 f5bc
00000060: b27f 95bd a4e6 2a3c f086 bc3d da4e 7e3d
00000070: 6e2d 543d 9aef d33c 70a8 1a3d 8daf 25bd
00000080: b014 66bd 6726 abbc a4e1 883d 6f73 dd3c
00000090: 9d23 813d fdba b73d 9b35 d53d b5f8 993c
000000a0: bef8 3bbd 5a0c 853c 48b6 12bd bd67 943d
000000b0: e298 b43d 933d 663d a48a 953d 1a1d 493c
000000c0: ff79 963d caea e53c d730 6f3d 2408 173d
000000d0: 052e ab3d 86b7 16bd 9b59 f63d 67ef 333c
000000e0: 2faf 513d 8c06 e53c 65cf a23c 3bab 03bd
000000f0: 7d3e dc3d e435 433d 27a6 b43d e8a2 2abd
00000100: 57b3 7b3b 0972 1b3d 92a6 6a3d 0ca9 c0bc
00000110: 787a b63d 3295 d8ba 7016 99bc 3ab7 c8bc
00000120: 0f99 b53b 5746 2e3b d1c2 afbc 2e1d 8e3d
00000130: e946 263a fe63 933d 559e 03bc d90e 8f3d
00000140: 1cc9 3fbd d0b7 c23b ad07 443d 03e6 babb
00000150: ab7d 5d3d 30a0 dc3c 6ee1 943d c38e f23d
00000160: 04ba d33c 3f79 a83c 8714 713d 633c 5a3d
00000170: 3e06 79bb afcb 173c 5204 e9bc 7969 6abd
00000180: e8ab 613d 9213 473d f767 d13c 35fd 733c
00000190: 7981 10bd 1472 dabc b70b 1c3d 3d84 ad3d
000001a0: dd72 cc3d 198d 3abd f09e 253b c2e2 34bd
000001b0: 2d60 333b bc47 b9bc dcdd 7fbd d591 b83b
000001c0: c58e c73d fd5a 9abc f418 2abc c50a 023d
000001d0: bb73 053d 4309 12ba 890f d83c 3ff1 f83b
000001e0: b088 6b3d 86b4 87bd 34f8 963d 0cd4 203d
000001f0: da2b 7cbc 77da 113d c19c fc3c b56a a73b

op.weight f4 [4, 128]
0.24659432 0.050663415 -0.55956316 -0.47997117 0.05326854 0.08190935 -0.20750888 -0.2118555
-0.20635673 0.10884131 -0.09664689 -0.18567806 -0.27394414 0.05764891 -0.05598858 -0.02348177
0.10286777 0.0076045427 -0.18319899 -0.2756824 0.079890765 0.13049966 0.12244509 -0.017508522
-0.28839257 -0.15444909 0.14363469 0.04282858 0.087006845 0.14943941 -0.52429545 -0.143861
0.07754373 0.19462626 -0.15910573 -0.12194772 -0.15414627 -0.25869706 0.15826337 0.16499285
-0.13805343 -0.23640718 0.07050525 -0.13038637 0.04179078 -0.083419695 -0.26840016 -0.24621123
-0.26311293 -0.18862168 0.0059147794 -0.13811192 0.1311061 -0.16513363 0.05464627 0.17555474
0.038332403 -0.17888379 -0.21939942 -0.08787682 0.107359506 -0.20144619 0.14521502 0.040225808
0.11634399 0.048435997 0.08880346 -0.113271035 0.08391584 0.19437246 0.03246873 -0.15964413
-0.034761027 0.053519476 -0.11968729 0.1330485 -0.020619927 0.13098769 0.0812174 0.17344762
-0.22480649 -0.21639034 0.15191637 0.0866379 -0.16997953 0.1328717 -0.060310286 0.17919584
0.15011764 -0.05585013 -0.13091163 -0.18390344 -0.25099224 -0.18023778 0.03939334 -0.023374245
0.052135557 0.17826624 0.000100528676 0.1308328 0.031731587 0.12983449 -0.13995999 0.024801856
0.18106712 -0.22709028 0.05552827 0.030079843 0.10469332 0.07139028 0.027927179 0.051869974
-0.29834238 -0.3594215 0.21650745 -0.10354072 -0.022154493 -0.18180878 -0.25400564 -0.18425505
-0.22248933 -0.004228121 0.06179487 0.1542759 0.20333394 0.35765272 0.08583296 0.14087641
-0.36090782 -0.114082925 -0.21707596 0.102925904 -0.22268926 -0.296211 -0.028776865 0.106045455
0.037454028 0.25125 0.08575897 0.027840668 0.008464349 0.10941221 -0.02376859 0.013039737
0.0996393 -0.053615596 -0.5490156 -0.10995992 0.052853428 -0.57410294 0.074587025 -0.01593584
-0.16350617 0.042197227 0.010987798 0.114141576 -0.039018042 0.043722272 -0.045175843 0.09862011
-0.0629686 -0.6246261 0.17214274 0.3420708 0.31484127 0.09785123 0.11234815 -0.15860297
0.078002214 -0.05326575 0.0149360765 -0.11529672 0.21599723 0.026867894 0.031402536 0.044617232
0.36617565 0.10488389 -0.33719614 0.06564421 0.08513936 0.056327228 0.07448581 0.104423575
0.026875498 0.037584282 -0.016902747 0.07380384 0.009498382 0.044509415 0.026907338 -0.27057508
0.07768813 0.09087341 0.11251776 0.24624363 0.013436776 -0.20794353 0.044371694 0.110228494
-0.09117767 -0.23786399 0.074057385 -0.31948152 -0.14460878 0.13283126 -0.09748011 -0.36228654
0.1555079 0.06303171 -0.0005306401 -0.54958826 -0.2024401 -0.17502403 0.17853618 0.08775989
-0.060186066 -0.074949495 0.0146842105 -0.07191898 -0.043971103 0.17323047 0.026253307 -0.0231568
0.24151392 -0.19758049 0.0760006 -0.15358007 0.047450252 -0.103484705 0.009167913 -0.017842745
-0.36995852 0.05770144 -0.027233878 -0.07648159 0.20225774 -0.01520849 0.017519157 -0.047397673
0.053350996 -0.06619488 -0.3004316 -0.16519201 0.19034281 0.116266854 0.118767135 0.105352946
0.038605124 0.008595998 0.08400495 -0.17841728 0.22684193 -0.39279535 0.071675055 -0.20716752
00000000: 3983 7c3e 7184 4f3d 883f 0fbf c8be f5be
00000010: 1d30 5a3d 17c0 a73d 357d 54be a6f0 58be
00000020: 2e4f 53be 31e8 de3d ceee c5bd 6422 3ebe
00000030: 6842 8cbe 4321 6c3d 4854 65bd d75c c0bc
00000040: 56ac d23d 872f f93b 8498 3bbe 3e26 8dbe
00000050: c59d a33d b4a1 053e 7ec4 fa3d 086e 8fbc
00000060: 31a8 93be e727 1ebe f914 133e 056d 2f3d
00000070: a530 b23d a506 193e 3a38 06bf 4c50 13be
00000080: 3fcf 9e3d 1b4c 473e 9dec 22be babf f9bd
00000090: 85d8 1dbe f173 84be cb0f 223e e3f3 283e
000000a0: e15d 0dbe b914 72be 0e65 903d 0184 05be
000000b0: cf2c 2b3d f2d7 aabd bf6b 89be cc1e 7cbe
000000c0: bdb6 86be 0b26 41be c4d0 c13b 366d 0dbe
000000d0: ad40 063e ca18 29be c4d4 5f3d 9fc4 333e
000000e0: 7002 1d3d 502d 37be 3eaa 60be c3f8 b3bd
000000f0: 4ddf db3d e947 4ebe 3fb3 143e d1c3 243d
00000100: c245 ee3d d364 463d 97de b53d a5fa e7bd
00000110: 11dc ab3d 9309 473e eefd 043d c079 23be
00000120: 9461 0ebd 3d37 5b3d 9c1e f5bd de3d 083e
00000130: 1feb a8bc a321 063e 4f55 a63d 419c 313e
00000140: ac33 66be 6e95 5dbe f78f 1b3e 366f b13d
00000150: 1d0f 2ebe 850f 083e eb07 77bd 1d7f 373e
00000160: 70b8 193e 1bc3 64bd b30d 06be 2f51 3cbe
00000170: 0e82 80be 4190 38be e95a 213d 587b bfbc
00000180: 188c 553d 6d8b 363e ecd2 d238 09f9 053e
00000190: fbf8 013d 55f3 043e ac51 0fbe 432d cb3c
000001a0: a969 393e 5b8a 68be 9c71 633d 016a f63c
000001b0: 7469 d63d 1135 923d 8ac7 e43c 9c75 543d
000001c0: 55c0 98be 1806 b8be 21b4 5d3e 280d d4bd
000001d0: 577d b5bc 152c 3abe 070d 82be 5bad 3cbe
000001e0: 3ed4 63be 0d8c 8abb 9e1c 7d3d 80fa 1d3e
000001f0: c636 503e 421e b73e 31c9 af3d e841 103e
00000200: e9c8 b8be 4fa4 e9bd 2949 5ebe d1ca d23d
00000210: a708 64be f8a8 97be 76bd ebbc 5c2e d93d
00000220: 6569 193d d7a3 803e 66a2 af3d 1d12 e43c
00000230: 0eae 0a3c 8213 e03d 59b6 c2bc 9fa4 553c
00000240: b00f cc3d 079c 5bbd 498c 0cbf ab32 e1bd
00000250: d67c 583d 69f8 12bf 15c1 983d e18b 82bc
00000260: 296e 27be 00d7 2c3d 2a06 343c 0fc3 e93d
00000270: 62d1 1fbd 2016 333d 4e0a 39bd 57f9 c93d
00000280: aef5 80bd 7fe7 1fbf 3046 303e e723 af3e
00000290: e032 a13e 3a66 c83d c916 e63d d168 22be
000002a0: a0bf 9f3d 302d 5abd 72b6 743c b020 ecbd
000002b0: 612e 5d3e 0f1a dc3c f29f 003d 8fc0 363d
000002c0: 607b bb3e 5dcd d63d f9a4 acbe 7970 863d
000002d0: 8b5d ae3d 61b7 663d 048c 983d 07dc d53d
000002e0: 012a dc3c faf1 193d a177 8abc 7826 973d
000002f0: 1a9f 1b3c 814f 363d c76c dc3c d188 8abe
00000300: f41a 9f3d d71b ba3d b66f e63d 4a27 7c3e
00000310: ec25 5c3c 26ef 54be 18bf 353d 7abf e13d
00000320: 5cbb babd 9e92 73be 66ab 973d 1593 a3be
00000330: 5314 14be eb04 083e a7a3 c7bd 9f7d b9be
00000340: 773d 1f3e c516 813d a81a 0bba d1b1 0cbf
00000350: 754c 4fbe 8039 33be 30d2 363e 75bb b33d
00000360: aa85 76bd 1f7f 99bd 0b96 703c 424a 93bd
00000370: 0b1b 34bd 5463 313e 2d11 d73c 54b3 bdbc
00000380: 6d4f 773e 8a52 4abe 34a6 9b3d 1844 1dbe
00000390: 325b 423d caef d3bd 0435 163c f32a 92bc
000003a0: 346b bdbe 5858 6c3d 9519 dfbc 61a2 9cbd
000003b0: a71c 4f3e 082d 79bc 5684 8f3c 1024 42bd
000003c0: 9386 5a3d 2e91 87bd 2cd2 99be 1828 29be
000003d0: 3ae9 423e 511d ee3d 2f3c f33d 49c3 d73d
000003e0: 6820 1e3d 3bd6 0c3c ca0a ac3d 05b3 36be
000003f0: 4049 683e 791c c9be 5fca 923d b923 54be

op.bias f4 [4]
0.04146792 0.0944814 -0.025602574 -0.06218979
00000000: 44da 293d 777f c13d 7dbc d1bc b9ba 7ebd
